cracknet_model.tflite (tflite, 963408 bytes, 13 tensors)

model/conv2d/BiasAdd/ReadVariableOp f4 [64]
00000000: 06e2 0fbc 16bd a0bb 36e9 71bb 262c 403c
00000010: fd47 593b 69f1 0a3c fdc0 7e3c 65c9 273a
00000020: d58c 0c3c bad6 5dba 1a34 063c 8e41 74bc
00000030: 74ef 34bc 0b0f b93c 02f0 1fbb df09 9e3b
00000040: dc5b c3bc a911 9e3c 4198 81bc a13e 14bc
00000050: 789d 653c e887 bfba 2331 c63b afc3 a03c
00000060: 0d25 fd3b bcf9 7c3c 6603 123b 137e 61bc
00000070: b11b 0bbc 5c88 53bb b26f 5b3c 5444 97bc
00000080: 4872 00bc 2878 ab3c 2fff 533c b0da 9b3c
00000090: 94fd 62bc 74c6 2dbc e6d8 a8bb 842e c83b
000000a0: 1167 c63b 1656 033a a5b4 543c cae1 8dbb
000000b0: 290f a13c b236 223b b196 64bb 728e c0bb
000000c0: e9a8 07bb 4f08 6cb7 e948 e1bb cf3c 6dbc
000000d0: abdd 193c 01ac b53c 7bd8 47bc 2470 bcbb
000000e0: 6a1d 893c aadf 21bb 6ad3 f33b 26a4 2ebc
000000f0: 56f4 59bc 345e b53c 9007 a63b e910 813c
-0.0087819155 -0.0049053533 -0.0036912686 0.011729276 0.003315448 0.008480408 0.015548942 0.00064005546
0.008578499 -0.00084624777 0.008191133 -0.014908208 -0.011043418 0.02259018 -0.002440453 0.004822954
-0.023847513 0.01929553 -0.01581967 -0.009048135 0.014014594 -0.0014612647 0.006048338 0.01962456
0.007725364 0.015440401 0.0022279858 -0.013762969 -0.008490489 -0.0032277321 0.013393329 -0.018465199
-0.007839747 0.020931318 0.0129392585 0.019025177 -0.013854403 -0.010606397 -0.0051528094 0.0061090607
0.006054767 0.0005010081 0.012982522 -0.0043298947 0.01966055 0.002475184 -0.0034879858 -0.005876356
-0.0020700044 -1.4068631e-05 -0.0068751466 -0.01447983 0.009391229 0.022176744 -0.012197609 -0.005750673
0.016737659 -0.0024699965 0.007440974 -0.010659253 -0.013302883 0.022139646 0.0050668195 0.015755134

model/conv2d_1/BiasAdd/ReadVariableOp f4 [128]
00000000: 9063 0ebd c2a8 c8bb 713a c2bb 4352 cfbb
00000010: ccce 12bd 047f 06bd bb2e f6bb 70b5 19bc
00000020: 4893 b5bb 905a 2dbc 3578 12bc fe1d 31bc
00000030: ccb2 a1bc 8484 03bd bbd2 e4bb 6508 1fbd
00000040: 83d7 f1bb 3390 a6bb 1ac5 88bb 9741 d6bc
00000050: 36ff bd3c 099f e6bb f0aa d9bb 1028 bcbb
00000060: 1834 c6bb 6b65 06bd 42eb a7bc bd2a 8dbb
00000070: 715e e8bc 11e1 b0bb 12bd 20bd 025d 87bb
00000080: 3f32 4b3c 3cc4 a1bb 3a94 4f3d 9985 a4bb
00000090: dce0 c7bc 1367 01bd 60c5 bcbb bc78 c5bb
000000a0: 7289 c3bb bade d5bc dbfb 3fbc e339 09bc
000000b0: cee9 0bbd b1f9 ecbc 0fb1 c3bb 2549 05bc
000000c0: 84f0 d7bb a3ac c4bb 76bc 92bd e7c0 b6bc
000000d0: a523 c5bb 1936 c1bc 5a10 c7bb 03e8 f7bc
000000e0: c6f8 e1bc 7e08 a5bc 0129 a4bb 26c2 b3bc
000000f0: c615 3bbc 0f5c c4bb 6d2b 1ebc 3946 f7bb
00000100: 42ae c4bb e55b 12bd 8815 c4bb c929 08bd
00000110: b07e c4bb d107 86bc febd 03bc 84b9 eabc
00000120: 3541 c0bb 8d48 dcbc 2325 76bc b943 d3bb
00000130: 4463 07bc fd1c a1bb 5087 96bb 98a4 dfbb
00000140: 1d33 02bd f7dd aabc 8bcf eebb a801 b2bb
00000150: c2c4 f2bb f1ee b5bb 85c7 dabb f966 acbc
00000160: 7c75 2abd f363 15bd 4409 0fbd f2b2 b1bc
00000170: bb1d c8bb 78d6 5dbc 57b5 7abc 8773 463d
00000180: 2534 dfbb 5ed1 97bb 0e08 c4bb d92e c4bb
00000190: bdac e1bb 6f12 00bd 47e7 5cbc 32ac c8bc
000001a0: ec30 dcbc 6d41 01bd 9cb4 c1bc 940f c8bb
000001b0: f6e8 a2bb 9f19 acbb 661f c4bb f601 cfbb
000001c0: 0976 36bc e9f6 d6bc 6585 04bc b4d3 f1bc
000001d0: eca4 f5bc d2a5 743d f680 533d df86 b8bc
000001e0: 1db8 02bc 6b70 16bc 1741 0abc d804 273d
000001f0: 1a9d 46bc 295d 01bd 4748 10bd fa95 eabc
-0.03476292 -0.006123633 -0.005927377 -0.006326945 -0.035841748 -0.032835975 -0.007512895 -0.009381637
-0.005541239 -0.010580674 -0.008939792 -0.010810373 -0.019738577 -0.0321088 -0.006983129 -0.038826365
-0.0073804273 -0.005083108 -0.004173887 -0.026154323 0.023192983 -0.0070380014 -0.006642692 -0.0057420805
-0.0060486905 -0.032811563 -0.020497922 -0.0043080733 -0.028365346 -0.0053979238 -0.03924281 -0.0041309604
0.012402116 -0.004936723 0.05067847 -0.005020809 -0.024399213 -0.03159244 -0.0057608336 -0.0060263555
-0.0059673125 -0.02610718 -0.011717762 -0.008375618 -0.03415852 -0.028927656 -0.0059720348 -0.008135115
-0.006589951 -0.006002025 -0.07164852 -0.02230878 -0.006016212 -0.023585366 -0.0060749473 -0.030261999
-0.027584445 -0.020145651 -0.005009771 -0.021943163 -0.011418765 -0.0059924196 -0.009653908 -0.007546213
-0.0060022185 -0.03573217 -0.005984012 -0.033242974 -0.0059965476 -0.016361149 -0.008040903 -0.028652914
-0.0058671483 -0.026890064 -0.0150235025 -0.006447282 -0.008263413 -0.0049167858 -0.004593767 -0.006825041
-0.031787027 -0.020857794 -0.0072879246 -0.0054323263 -0.0074087093 -0.0055521657 -0.0066766166 -0.021045195
-0.041615948 -0.036472272 -0.034920946 -0.021691773 -0.00610706 -0.013539903 -0.015302024 0.04845002
-0.006811636 -0.004633113 -0.0059824055 -0.00598703 -0.006887047 -0.03126758 -0.013482875 -0.024496172
-0.026878797 -0.031556536 -0.023645692 -0.0061053727 -0.0049716188 -0.0052520777 -0.0059851883 -0.0063173724
-0.01113654 -0.026240783 -0.008088444 -0.029519893 -0.029985867 0.05972845 0.05163666 -0.022525249
-0.007978466 -0.009182076 -0.00843837 0.040776104 -0.012122417 -0.031582985 -0.03522518 -0.028635968

model/conv2d_2/BiasAdd/ReadVariableOp f4 [64]
00000000: 4936 11bd f381 5d3d 7edf c43d 4451 12bd
00000010: 9371 18bd 9c9d 01bd 36d4 26bd 181e fabd
00000020: a5bf 2bbd f74a 26bd ad41 1dbd f3ad 02bd
00000030: 69b9 18bd e9c0 1fbd 3684 05bd 8867 3abd
00000040: a976 1dbd f1e0 73bb 5b5f 7c3d bccf 3bbd
00000050: 7bac 693d 2491 733d 8a0e 05bd 0f3b 91bd
00000060: 5401 16bd 68e6 8b3d 7e83 a8bd 58ba 35bd
00000070: 2fac 813d 84e2 03bd c46a 12bd 9bb8 d7bd
00000080: de40 4bbc e04d 95bc 5865 5b3d e25e 0fbd
00000090: dbe5 e0bc 6621 b83d 0cd9 ebbd 99dc 643d
000000a0: 8929 93bd 5d9c 0dbd 81ac 16bd a736 01bd
000000b0: e2de 13bd e794 bb3d dc0e 8d3d 23f5 2cbc
000000c0: 7200 14bd 503c 883d 0056 07bd 7e48 d23d
000000d0: 03a2 14be b6ce 8abc 287b 06bd 08e6 11bd
000000e0: 8226 2cbc aa8f 723d 5638 35bc 4857 0ebd
000000f0: bbe0 61bd db68 fbbb cde3 14bd 88bb c0bc
-0.03545216 0.054079007 0.0961294 -0.035722032 -0.037217688 -0.03164445 -0.040729724 -0.12212771
-0.041930813 -0.040598836 -0.03839271 -0.031904172 -0.037286196 -0.039002333 -0.03259679 -0.04550889
-0.03844324 -0.0037212933 0.061614376 -0.045852408 0.057049256 0.05946459 -0.03248457 -0.07091343
-0.03662236 0.06831056 -0.08228205 -0.044367164 0.063316695 -0.032198444 -0.03574635 -0.105332576
-0.012405602 -0.01822561 0.053563446 -0.035002597 -0.027453354 0.08990745 -0.11516008 0.05587444
-0.071856566 -0.034572948 -0.036785606 -0.03154626 -0.03610123 0.0915926 0.068876 -0.010556492
-0.036133237 0.06652129 -0.033041 0.10267733 -0.14514928 -0.01694427 -0.032832295 -0.035619766
-0.010507228 0.05921904 -0.011060795 -0.034751207 -0.05514596 -0.007672412 -0.03635006 -0.023526922

model/conv2d/Conv2D f4 [64, 3, 3, 64]
00000000: 6185 7ebd ebec 89bd dc1b a6bb 346e 183c
00000010: 58cd 3ebc a867 3b3c 4035 7c3c 856c bfbc
00000020: 7a2b 2cbd e3e4 17bd 0f23 91bb fcb6 41bd
00000030: 977c 6ebd f089 c23b 14b7 a33c 1fd4 f1bb
00000040: ee9b 4dbd a217 7ebd f18a b23c 08ad 31bd
00000050: 2fec 01bd 88bb 293c c4c7 63bd 8032 cbbc
00000060: 4442 f33c 8ad9 3a3d 6453 e13c 5264 1d3d
00000070: 8097 893a af38 91bd f59d 18bd 4732 0f3d
00000080: 5892 b53b f882 cf3c 422b 1a3b b855 673d
00000090: 4a3b 533d cd5e 223d abc6 34bd d4dc 9f3c
000000a0: 6c79 493d c6f8 e9bc 98bb 683c 002e 8db9
000000b0: 6ce8 9dbd 86c5 3fbd 63d2 5fbc 535f 9cbd
000000c0: cf22 9abb 698b 87bd 3b4a cb3b 9648 dcbb
000000d0: 106a 293d 36a5 e2bc 2da6 303c 641e 78bd
000000e0: 107a c23c 65af 7e3d c164 53bd b420 2fbd
000000f0: 8e51 363d dfee 60bd 060a bf3c e7bd 5e3d
00000100: cbab 653d a2cb 8dbc 1570 44bd eda4 a03a
00000110: 648d 2b3d 0cac 903d 0a65 90bd 8f94 0a3a
00000120: dad7 293d e11b 813c ab11 20bd 607a 193d
00000130: 2824 863d f957 80bb a60c 7cbd 3c55 f33c
00000140: f2e9 89bd ae4f 0dbd 3ad2 5e3d 5725 013d
00000150: 0e41 663d c699 fbbc ecd8 de3c 90ee 863d
00000160: a848 723d c8d9 77bc 9cb7 8a3d 30ed 63bc
00000170: f0d0 c73c 6cea 9bbd 989d 113d 5396 8d3c
00000180: a91d 8e3b c023 023b c216 c0bb c498 693d
00000190: 8acd 1e3d bf1b 82bd 3cbb 82bd 4df2 76bd
000001a0: f6c7 803d da40 7a3d e1e4 44bd 6c82 f1bc
000001b0: b71c 323d d623 9f3a c5e2 f23c ffe7 0b3d
000001c0: e697 143d 66f8 10bc e28a 87bd d1d8 7e3d
000001d0: 28ca 653c d33d 0ebd f1d3 93bd 1f17 debc
000001e0: 96c0 a0bc 6390 0c3d af02 ee3b 2386 c9bc
000001f0: bce0 ce3c a36b a4bc 5f70 3dbd ec19 0cbc
00000200: 4c14 b53c d0a4 303c 6486 76bc 10cf d33c
00000210: 7584 25bd 36a3 b3bc 2375 4d3d 0caa 783d
00000220: 9aa4 cfbc edcb 5bbc 8732 03bd 324b 64bd
00000230: b0c2 6f3c fb9a 15bd a851 3d3c f21c 5f3d
00000240: d963 223d 87bf a83c 0e17 4b3d aaea 163d
00000250: f99b 96bd ce88 0abd 5272 383d e2d4 68bd
00000260: cf8f 6c3d f2cc 9fbc 8c9c 6f3d 80e1 153b
00000270: 4028 9bbb 1d5b c73c a4c7 9f3c b8fd 153d
00000280: e34c 2e3d fcce a23c 2eb9 7bbc 4a4b 2d3d
00000290: 3c8c d43c 704c 5a3d 002f 403d 4478 93bd
000002a0: fd4a 91bd dc2e 9abd 19ba f7bc a4b4 50bd
000002b0: 022b 183d 3bb9 973c a12c 3abd d4de e63c
000002c0: c853 5a3d 5658 b73b 5a64 b33c 684e 773d
000002d0: 20e9 6a3d 74d1 8f3d faac fd3a 3d50 74bc
000002e0: 642d 37bc 7004 813c 9437 90bc d45d dcba
000002f0: 8408 fc3c b491 87bc 8929 793d 5ae6 bcbc
00000300: 9684 493d 68b4 133c 6d69 43bd 3805 c63c
00000310: d077 e5bb e4db 92bc d7a4 243d 9d5b 11bd
00000320: 80ea 09bd 4aab 80bd 8ad1 2ebd c24f 6cbd
00000330: 9700 5cbd d869 173c 0ca4 8bbc 387f 3cbd
00000340: a8ae 41bd 0fa7 843c d826 a13c 96c1 86bd
00000350: cbc0 503d 64f8 ec3c 01af 8fbd 594d 19bd
00000360: f76d 59bd 9222 503d 2015 003d f0a5 e23c
00000370: 0028 6d3d bb5b 2cbd d8a0 673b cbca 413c
00000380: 90e8 93bd 34a0 ff3c f8d4 9dbd 5440 3ebc
00000390: fe36 2e3d c4af 7cbd 9d09 b43c 74f6 80bd
000003a0: 5418 07bd eb3a a73b 47a5 273b 80cd 8b3d
000003b0: 81ac 473d 9ed8 2cbc 1173 4cbd 1c3b 0e3d
000003c0: 6e90 64bc f6cd 79bd f058 26bd f467 3cbd
000003d0: 0027 6cbc cfeb 47bd 4e5e 94bd ba65 48bd
000003e0: cbe2 00bd 0f42 45bd 08df 59bd 417b 22bd
000003f0: 0029 d0b9 7b0e dbbb a86a 3e3d 16dd 38bd
-0.06213892 -0.06734642 -0.005069239 0.009303618 -0.011645637 0.011438288 0.015393555 -0.023367176
-0.04203365 -0.037083518 -0.004429228 -0.047293648 -0.058224287 0.0059368536 0.01998476 -0.007380023
-0.050197534 -0.062034257 0.021794768 -0.043377906 -0.031719383 0.010359652 -0.055610433 -0.024804354
0.029694684 0.045617618 0.027505584 0.03842575 0.0010497421 -0.0709089 -0.037260015 0.034960058
0.005541127 0.025331005 0.0023524319 0.056478232 0.051570214 0.03964119 -0.044134777 0.019514479
0.049188063 -0.028561007 0.014204882 -0.00026927888 -0.077103466 -0.046819232 -0.013661 -0.07635369
-0.0047038565 -0.06618387 0.0062039173 -0.00672252 0.041360915 -0.02766667 0.010781807 -0.060575858
0.023739845 0.062178988 -0.05160976 -0.042755798 0.04451137 -0.054915305 0.02332021 0.054380324
0.056072038 -0.017309014 -0.047958452 0.0012256183 0.041882887 0.07064065 -0.07050522 0.0005286419
0.041465618 0.015760364 -0.03907935 0.03747022 0.06549865 -0.003916737 -0.0615355 0.029703729
-0.06734075 -0.034499817 0.054399706 0.03152975 0.056214385 -0.030712973 0.027203046 0.06588471
0.05915132 -0.015127607 0.06773302 -0.01391153 0.024391621 -0.07613072 0.035550684 0.017283594
0.004337032 0.0019857734 -0.005862088 0.057030454 0.038770236 -0.063529484 -0.063833684 -0.06028967
0.062881395 0.061097004 -0.04806984 -0.029481135 0.043484416 0.0012141417 0.029649148 0.034156796
0.036277674 -0.008848285 -0.06618287 0.06221849 0.014025249 -0.03472693 -0.07218159 -0.027110634
-0.019623082 0.034317385 0.0072635035 -0.024600094 0.025253646 -0.020070856 -0.046249744 -0.008551102
0.022104405 0.010781482 -0.01504669 0.025855571 -0.040409524 -0.021928411 0.05016054 0.060709044
-0.025347043 -0.013415319 -0.03203061 -0.055735774 0.014633819 -0.036524754 0.011555113 0.054470964
0.039646003 0.02059914 0.049582534 0.036844887 -0.07353968 -0.033821873 0.0450309 -0.056843646
0.057754334 -0.019506905 0.058498904 0.0022870004 -0.004735023 0.024335438 0.019504376 0.03661892
0.042553794 0.019874088 -0.0153639745 0.04230813 0.025945775 0.053295553 0.046919823 -0.07200673
-0.07094381 -0.07528469 -0.030240105 -0.050953522 0.03715039 0.018520942 -0.045452718 0.028182425
0.053302556 0.0055952473 0.021898437 0.06037751 0.05735123 0.07022372 0.0019353919 -0.014911708
-0.011180256 0.015749186 -0.017604627 -0.0016812631 0.03076578 -0.016548969 0.060830627 -0.023059059
0.04919871 0.00901518 -0.047707964 0.02417241 -0.007002808 -0.017927118 0.040196266 -0.03548776
-0.033670902 -0.06282671 -0.0426803 -0.05769325 -0.0537115 0.009241544 -0.017045997 -0.046019763
-0.047285706 0.016192941 0.019671842 -0.06579892 0.05096511 0.028927036 -0.07015801 -0.03742728
-0.053083386 0.05081422 0.031270146 0.027667016 0.057899475 -0.04207967 0.0035343673 0.011828135
-0.07222092 0.03120432 -0.07706636 -0.011612017 0.042532913 -0.06169106 0.02197724 -0.06297007
-0.032982185 0.005103459 0.002558069 0.068263054 0.048748497 -0.010549692 -0.049914423 0.03472434
-0.01395045 -0.060987435 -0.04061216 -0.045997575 -0.014413595 -0.04880887 -0.0724455 -0.04892514
-0.031466287 -0.0481587 -0.053191215 -0.039668325 -0.000397034 -0.006685076 0.046488434 -0.04513272

model/conv2d_1/Conv2D f4 [128, 3, 3, 128]
00000000: b4ca 44bc 32ac 953d d0b0 c73c 0e7c 963d
00000010: 26f3 233d 8b13 043e 248f 313d 44bf 0abc
00000020: ceaa 5f3d f3c2 fc3c 824d 8d3d 1f0f 4a3d
00000030: ec3f 2abd 2307 1d3d 6f9e d53d ab73 c13b
00000040: a88d 563d 3cce 143d 51e3 d63c e0a6 27bb
00000050: 90ba 1fbd b765 503e 1a95 873d f165 0bbd
00000060: ea21 223d 6e52 4c3d 8a75 a23c 8073 503c
00000070: 7757 173c 19cb 2a3d 17a2 02bd 7a46 fd3c
00000080: b874 d0bc 7f25 dc3d 95f7 29bb 7b73 443c
00000090: 3080 ef3c 2c9a ca3c edab 4cbd 97e6 803d
000000a0: 0c18 083d 7d6a 4a3c 57d9 293d 1488 613d
000000b0: 57cc 89bc fab4 21bc 8183 27bd b221 5f3d
000000c0: 38e5 013d 5b73 233d 56d5 a73c 9f7a 363b
000000d0: b3ae 07bc c182 293d eb80 513d d483 d2bc
000000e0: 5dc6 0e3c 425a 8c3c a020 7d3d ff4f 3a3d
000000f0: 8d6b 133d c778 6dbc fb97 713d 9ca6 63bb
00000100: 2421 053d 206d cc3d 46df 303d 368b 3d3e
00000110: c686 233d caa8 0a3d abb8 4bbd 9657 2f3d
00000120: b881 013d 06ac 4abd 41b6 393d ebc1 25bd
00000130: a78c 9d3c d9c9 b0bc 63b6 d13c 4aba 563d
00000140: 06cf 5dbd 9463 873c 557f e8bc 794e 24bd
00000150: a7c1 0ebc e4ad 1c3d a28f 773c 3cbf eb3c
00000160: 474b 2d3c 18db 283d 7432 223d 39fe 223e
00000170: 1baa 353e bd86 6a3d 7d97 083d a485 7dbc
00000180: 9dd4 0d3d 432e d6bb fa11 d13c bbd5 9c3d
00000190: 7388 df3c a70c 25bd 81ac 63bd e75d 47bd
000001a0: 6b2b dfbb cdef ee3d 15d0 823d 10a9 de3b
000001b0: 091d 5e3c 7ceb 93bc ca99 a5bb 0bd5 873d
000001c0: 45f4 d53c 7da0 143d a69e c33d 565d 26bc
000001d0: 21e8 b83c aaff d33d 68fe 8f3c 1776 cbba
000001e0: a699 023e 5007 6cbc 0126 fb38 452d dc3d
000001f0: 4f5e d53c 8576 233d 83cd 68bd 91a1 d13d
00000200: cc33 33bc 26b8 3b3d fef7 d73c f81b 453b
00000210: a36a 5e3d 5541 6f3d d320 b03c 45ec eabc
00000220: f3fe edbb 000f 9d3d 3138 d23c f652 0fbc
00000230: 9942 3f3d 9706 8f3c d961 763d fa47 44bd
00000240: 89b5 c33c 05e0 1f3c 8576 af3d 7a86 84bc
00000250: 8295 a33b 872f f63d 096e 8b3d f1e8 c63a
00000260: 4040 803d b308 0d3d f199 a33c f554 8abb
00000270: ebb8 563c 4af6 473d 0efb cdbc 7cc1 023c
00000280: b063 e63c 9e48 ae3d 8736 90bc 0278 0cbd
00000290: 24d0 ac3d 72b4 043d 3c93 e0bc 8109 2c3d
000002a0: de5a b13c d78f 4c3d fd63 523d bc02 7a3d
000002b0: e308 bcbc 55d3 35bd 5919 8fbd 8772 f43b
000002c0: ce3f c3ba 398d 85bd fd22 6f3d 565f 843d
000002d0: 3b3b 4e3d e1fd 9a3d c22d 70ba ae8d 00bd
000002e0: f0e5 f0bc 311a 883c e7b1 003e 439c ce3d
000002f0: 63fe 2c3d 0461 99bd b1e7 263d d3a4 2fbd
00000300: 9f5c 8a3c 3058 6a3d 1674 7f3c 5ea4 d03d
00000310: e78a 253d b2aa b43d a38e d13c b8bc a33c
00000320: 9b6c b23a 164a 64bd 8c98 f13d e6bb 053d
00000330: 59da cebb 4e79 d6bc 55b4 0f3d a01d ad3c
00000340: 617f 6fbd 4365 9b3c e0fb 68bb 95a6 20bd
00000350: 7128 ba3c 359a 0c3d afd6 00bd 0f96 863c
00000360: 8c3b ce3b f60a 433d da19 0f3d c26a 263d
00000370: dc61 2c3e 9895 fe3c 4daa 1f3d 72f0 883d
00000380: fd6f 813d f5fc 02bd 5844 7cbd 871d 783d
00000390: cfbe 083d d83a a33b 513b 7cbc 1c19 86bc
000003a0: 4f4a 8abc 0527 423d ba1e 643d 1d80 3b3d
000003b0: 348c 9e3c 55cc 663c f263 103d 21d3 e8bb
000003c0: a5f8 abbc 1a76 f73c 3052 913d eec4 a3bc
000003d0: a883 02bc 2808 c03d 6902 b03b 2970 4dbd
000003e0: f10f e43d 71f3 a0bc ea25 343d 64c0 5f3d
000003f0: 0146 2c3d d77e 4f3d b1c0 bb3c 7612 923d
-0.012011219 0.07308234 0.024376303 0.0734788 0.040026806 0.1289808 0.0433494 -0.008468453
0.05460625 0.030854678 0.06899549 0.049330827 -0.041564867 0.038336884 0.104306094 0.0059036813
0.052381188 0.036329493 0.02623144 -0.0025581643 -0.03899628 0.20351301 0.06620236 -0.034032766
0.039583124 0.0498833 0.019831438 0.01272285 0.009237162 0.041697595 -0.031892862 0.030917395
-0.02544628 0.10749339 -0.0025934924 0.011990423 0.02923593 0.024731718 -0.04996865 0.062939815
0.033226058 0.01235449 0.041467037 0.055061415 -0.01682107 -0.009869808 -0.040896896 0.054475494
0.03171274 0.039904933 0.020487469 0.0027844084 -0.008281398 0.041384462 0.051148336 -0.025697626
0.008714286 0.017132882 0.06179869 0.045486446 0.03599124 -0.014494128 0.05898283 -0.0034736758
0.03250231 0.099817514 0.04318168 0.18510136 0.03992345 0.033852376 -0.04973666 0.042808138
0.03161785 -0.04948046 0.045339826 -0.040468138 0.019232107 -0.021580623 0.025599664 0.052423753
-0.05415251 0.016526975 -0.02838103 -0.0401139 -0.0087131625 0.038251773 0.015109928 0.028777711
0.01057703 0.04122457 0.039598897 0.15917291 0.17740671 0.057257403 0.033347595 -0.015473757
0.034626592 -0.0065362765 0.025521267 0.07657953 0.027286744 -0.04029527 -0.055584434 -0.048673537
-0.0068105957 0.11666832 0.06387345 0.006795056 0.013556727 -0.018056624 -0.0050537335 0.066324316
0.026117453 0.036285866 0.09551744 -0.010154089 0.022571625 0.103514984 0.017577365 -0.0015522864
0.12753925 -0.01440604 0.000119756915 0.10750822 0.026045946 0.03990795 -0.056836616 0.102358945
-0.010937642 0.045829915 0.02636337 0.0030076485 0.054300915 0.058411915 0.021500027 -0.028677115
-0.0072630583 0.07668877 0.02566156 -0.008747807 0.04669437 0.017459197 0.06015191 -0.047920205
0.023890274 0.009758 0.08567528 -0.016177405 0.004992188 0.12020784 0.06808097 0.0015175623
0.06262255 0.034432124 0.019970866 -0.0042215534 0.013105611 0.048818864 -0.025144126 0.007980701
0.028123707 0.085099444 -0.017604126 -0.034294136 0.08438137 0.03239865 -0.027413957 0.04200125
0.021649774 0.049941864 0.051364888 0.061037764 -0.022953456 -0.044390995 -0.069872566 0.007459942
-0.0014896335 -0.06521077 0.058382977 0.064634964 0.050349455 0.07567955 -0.0009162092 -0.031385116
-0.029406518 0.016614052 0.12567864 0.10088398 0.04223479 -0.074892074 0.040748302 -0.042881798
0.016889868 0.05721301 0.015591642 0.101876006 0.04041567 0.0882162 0.02558071 0.019987449
0.0013612689 -0.055734716 0.11796674 0.032649897 -0.00631265 -0.02618089 0.035084087 0.02113229
-0.058471087 0.018969184 -0.003555052 -0.039221365 0.022724362 0.03432675 -0.03145474 0.016428975
0.0062937196 0.047617875 0.034936763 0.040629156 0.16834205 0.031077191 0.03898077 0.06686486
0.06320188 -0.03197952 -0.061588615 0.060575034 0.033385094 0.00498138 -0.0153950015 -0.016369395
-0.016881136 0.047400493 0.055693366 0.045776475 0.019353963 0.0140868025 0.035251565 -0.0071052467
-0.020992586 0.030207682 0.07095754 -0.019991364 -0.00796596 0.09376556 0.005371381 -0.050155792
0.11135853 -0.019647332 0.04398147 0.054626837 0.04205895 0.050658073 0.02291903 0.071324274

model/conv2d_2/Conv2D f4 [64, 3, 3, 64]
00000000: 296e 4fbd eede 973a c4b4 013d 76a4 ad3d
00000010: 19fd e33c a44b 803d 2e14 26bd 3f4f 45bd
00000020: 31b3 67bd 2139 0abd 0455 513d 6048 e83c
00000030: 2eb0 c93d 02e8 c6bc 09e5 943c 0071 4e3d
00000040: f4f7 8e3d 365b 063d ae71 42bd a156 5fbd
00000050: 70ac 443b ec30 33bd 3d4d 643d 0a5d 10bd
00000060: dc77 7cbd 97b3 e3bc 38ea 8f3c bcd8 9d3d
00000070: 0e06 b03c adda eb3c 7396 0a3a ec2c 953c
00000080: a0ae 9d3d e628 b93c 4a52 3e3d 9255 773c
00000090: 90c1 88bc 720c dcbc a487 853d 97cc 62bd
000000a0: 9c2a 85bd b5c6 9b3d f84e 863d ca77 28bd
000000b0: c360 e33d 685b bd3c be91 b7bc b0b7 74bc
000000c0: df52 f8bb 3082 f23b d49c 863d bed5 88bc
000000d0: c352 d3bc ba49 67bc c0c3 793b 12ce 00bd
000000e0: 9aae debc 602b 703d 74ea 8dbd e2ad 83bd
000000f0: 8381 8b3d 360b 8a3d cfa8 803d a324 ae3c
00000100: f51e 75bd 381c 043c 581e 6a3b c3dd 943d
00000110: df35 78bd 6ce4 8abd e53d 823d 8a95 573c
00000120: da5c acbd 083d cabc e42b cc3d 8399 2c3d
00000130: b360 bdbd 66ef f3bc 0f01 acbd 7cb8 683d
00000140: 6131 ee3d 592d 04bd ab99 4fbd 6bf6 47bd
00000150: adc6 983d 5692 d23c 7cf4 893d 0d7b 40bc
00000160: 9eba 82bb 6d73 803d 08a4 7dbd 69f2 c7bd
00000170: a7ed b73c fcb2 893d 9ea0 a43c 25ec 65bd
00000180: 69c4 98bd d592 95bd 29de bdbd 2032 8dbc
00000190: 2954 5a3d d4fb 24bd bdc0 4bbd e743 dabd
000001a0: 409b e63c abb2 f33c 6840 8bbb 5f4d 473d
000001b0: 1eb8 0e3e ce41 553d d2b1 c53d a2dd 173c
000001c0: c10d 44bc e7b5 353d 60d7 59bd 010b 1f3d
000001d0: 2acb aabc f5eb a53d 0499 4a3d 27fa 7bbd
000001e0: 7bfc e9bc ae8d 03bd 0027 183d b19c 3d3c
000001f0: 350e 053d df4c 53bd 8fc3 873d 1cd6 9abd
00000200: 2e99 cdbc a61b 54ba 4c27 7dbd 7aef fe3d
00000210: fc42 403d 1280 e6bd 7601 ac3c 577c b2bd
00000220: 5784 38bd 6299 bfbc 4554 c83d a017 7dbc
00000230: 4cd7 20bd 2f3d 333d 8db7 15bd 91d9 87bd
00000240: ff41 fb3d 36bf d1bd e795 22bd e811 8bbd
00000250: a678 fb3c 6eb3 f5bb 7363 09bc c181 eabc
00000260: c6d5 4ebb e2d1 253c 2e48 0f3d d03a 03bc
00000270: 1f0f 2abc bc2f 8d3d 2118 2e3d 8051 fcbd
00000280: d6bd 0a3d 814d 0fbd df30 f5bd f58f da3c
00000290: 7437 6ebd 67fb b2bb 0e5e 4ebd 97da 4dbd
000002a0: 700c 7c3c 1776 86bc 37b4 bc3d 7317 453d
000002b0: 5fb3 9b3d c67f 813d 9dd6 d23d 31cf 65bd
000002c0: 6225 423b 10d6 96bc 8c65 f4bc e9ad 55bc
000002d0: 93ff 23bd dc82 bd3d d891 3abd a41d 8bbc
000002e0: fe85 12be 86b3 a0bd ca2a a03d 28fc 313c
000002f0: 11d9 f5bc 1716 693d 282c 1e3e b5b1 973c
00000300: eeea e0bc 603e 55bd 8b0b 733d 60d7 353d
00000310: 4a2f 003c ee0d 13b9 4a91 8fbd 6b90 d1bc
00000320: c1fb 9e3c 70b4 fa3c 01a0 f53c 2e60 77bd
00000330: 3359 81bc dd86 62bd 70e0 973d d733 52bd
00000340: b58f 273d 837e 0b3d 1834 f23c d27c 6cbd
00000350: 8568 06bc cbe6 2b3d 18bb 023c e462 183d
00000360: 98e8 8b3d fac4 873d 8ec1 40bb 2b33 1a3c
00000370: 040d 893d 4d05 e13d de93 473d 358b 8bbd
00000380: 29d7 96bd 0759 893c 44d0 0cbd e27c 883c
00000390: 036c b33b fd56 013c 032e f2bc 37c6 1a3c
000003a0: 2071 7c3b d8ec 803d 183f dbbc d635 68bc
000003b0: a994 d5bc 0065 f23a f39c b33d 5833 703d
000003c0: 4159 203d 83d2 c7bc 7c14 6bbd efd3 3e3b
000003d0: f872 f4bb d18e 1e3d a6fc 6bbd 8a65 923d
000003e0: 14dc e13c 1b59 a83b c20e 25bd ee42 8c3d
000003f0: 72e0 9dbc 700f a8bb ef1d 283c 65e8 0a3d
-0.050642166 0.0011586824 0.031666532 0.08478634 0.027830647 0.06264427 -0.04054659 -0.048171278
-0.056567375 -0.03374589 0.051106468 0.028354824 0.09848057 -0.024280552 0.018175619 0.050400734
0.06980887 0.03280183 -0.047471695 -0.054525975 0.0030010007 -0.043747827 0.055737723 -0.03524498
-0.061637744 -0.027795596 0.017567739 0.077073544 0.021487262 0.028790796 0.0005286701 0.018209897
0.07699323 0.02260251 0.046465196 0.015096085 -0.01669386 -0.026861403 0.06520012 -0.055370893
-0.06502268 0.0760626 0.06558031 -0.041129865 0.1110244 0.023114875 -0.022408362 -0.014936373
-0.0075782384 0.0074007735 0.06572881 -0.016703483 -0.0257963 -0.014116699 0.003811106 -0.031446524
-0.027182866 0.058635116 -0.06929484 -0.0642965 0.06811812 0.067404196 0.06282198 0.021257704
-0.059843976 0.0080633685 0.0035723653 0.0726886 -0.06059825 -0.06781849 0.06359462 0.0131582115
-0.084161475 -0.024687305 0.09969309 0.042138588 -0.092469595 -0.02977724 -0.083986394 0.056816563
0.11630512 -0.03226981 -0.05068366 -0.048818987 0.074597694 0.025704544 0.06736085 -0.011748088
-0.0039895317 0.06272016 -0.06192401 -0.09763033 0.022452189 0.06723592 0.02009612 -0.056133408
-0.07459337 -0.073033966 -0.09270889 -0.017235816 0.053302918 -0.040279225 -0.049744356 -0.106574826
0.0281502 0.029748281 -0.004249621 0.04865777 0.13937423 0.05206471 0.09653057 0.00926915
-0.01196617 0.04436293 -0.053183913 0.038828854 -0.02084883 0.08101646 0.049462333 -0.06151786
-0.028562775 -0.03211754 0.03714657 0.011573003 0.032484252 -0.051586982 0.06629097 -0.07560369
-0.025097456 -0.0008091278 -0.061805055 0.1244802 0.04693888 -0.11254896 0.02099679 -0.08715122
-0.045048084 -0.023388568 0.09781698 -0.015447527 -0.039267823 0.04375952 -0.036552 -0.066332944
0.12268447 -0.10241549 -0.03969374 -0.06790525 0.030697178 -0.0074981963 -0.008385527 -0.028626325
-0.0031560524 0.010120841 0.034980945 -0.008009627 -0.010379582 0.0689387 0.04250348 -0.123202324
0.033872448 -0.034986023 -0.11972212 0.026679972 -0.058158353 -0.0054620984 -0.050382666 -0.05025729
0.015383825 -0.016413732 0.09214061 0.048118066 0.07602572 0.06323199 0.102948405 -0.056105796
0.0029624333 -0.01841262 -0.029833578 -0.013041952 -0.040038656 0.09253475 -0.045549244 -0.016981907
-0.14308926 -0.078467414 0.07820661 0.010863341 -0.030010732 0.056905832 0.15446532 0.018517355
-0.027455773 -0.05206144 0.05933718 0.04439485 0.007823775 -0.00014024202 -0.070101336 -0.02558156
0.019407155 0.030603617 0.029983522 -0.06039446 -0.015789604 -0.055304397 0.07415855 -0.05131897
0.040908534 0.034056198 0.029565856 -0.057736225 -0.00820363 0.04196815 0.007979177 0.037203684
0.06831473 0.06629367 -0.0029412243 0.009411613 0.06691936 0.10987339 0.048725 -0.06813661
-0.07365257 0.016766084 -0.034378305 0.016661111 0.0054755225 0.007894275 -0.029562956 0.009446672
0.0038519576 0.06295174 -0.026763484 -0.014172992 -0.026071863 0.0018493235 0.0877017 0.058642715
0.03914762 -0.024392372 -0.057392582 0.0029118021 -0.0074599944 0.03871042 -0.05761399 0.07148273
0.027570762 0.0051375753 -0.040297277 0.06848703 -0.019272063 -0.0051287934 0.010261043 0.033913035

model/dense/BiasAdd/ReadVariableOp f4 [64]
00000000: a34e 37bc e24b 08bb 63b8 08bd 87d2 6b3c
00000010: 0000 0000 36da 493d f229 36bd 380b a9bb
00000020: 0000 0000 8ea9 8ebd fd3e 853c ffa6 52bc
00000030: 90ed 59ba bd7d acbb b7f7 6bba aeaf 8ebc
00000040: 5a82 25bd a10c 82bc d491 abbb 0f4d d7bc
00000050: 0d8e 6fbd 0000 0000 bf1a 963d dbe5 45bb
00000060: f867 33bc ad5b 70bb 0000 0000 9721 aeba
00000070: 0000 0000 3731 15bd 653f 173d ec7d cbbc
00000080: fd03 23bd 0000 0000 3fb4 3fbd cea1 65bb
00000090: d653 8abb a507 e4bb d4ac abbd d9bf 29bd
000000a0: cefe ae3d 390b 1dbd b0da 6bbd 0000 0000
000000b0: 9a59 40bd 4132 d7bc 4f7f 92bc aa67 c4bd
000000c0: e624 41bd d264 09bd 9c09 28bd c8b9 04bc
000000d0: 56c9 9ebb b7ff daba b140 11bd bd46 813c
000000e0: 0000 0000 9753 82bc 4de5 5dbd 9889 0ebd
000000f0: a824 69bb 8240 6e3c 8237 993c 217f 91bc
-0.011188182 -0.0020797183 -0.03337897 0.014393455 0.0 0.049280368 -0.044473596 -0.005158808
0.0 -0.06965934 0.016265387 -0.012857198 -0.00083132926 -0.0052640126 -0.0009001451 -0.017417755
-0.040407516 -0.015875163 -0.00523589 -0.026281862 -0.05848508 0.0 0.0732932 -0.003019682
-0.010950081 -0.0036675737 0.0 -0.0013285157 0.0 -0.036423888 0.036925692 -0.024840318
-0.039798725 0.0 -0.046802755 -0.003503907 -0.00422142 -0.006958919 -0.08382574 -0.041442726
0.08544694 -0.03834078 -0.057581604 0.0 -0.04696045 -0.02626908 -0.017882971 -0.09590085
-0.04715433 -0.033543415 -0.04102479 -0.008100934 -0.0048457785 -0.0016708289 -0.035462085 0.015780801
0.0 -0.015909 -0.054173756 -0.03479919 -0.0035574827 0.014541747 0.018703226 -0.017760815

model/dense_2/BiasAdd/ReadVariableOp f4 [64]
00000000: 90ed 72bc c247 f4bb dd30 c5bc c4ee 7e3c
00000010: 2734 1abd d0c5 bfbc 2875 3dbb 4bb5 84bb
00000020: 3e19 12bd ff2d 38bc 3593 dbbb 5ae0 64bb
00000030: 249a 1dbd cbea 95bb d41c 36bc 8246 1fbc
00000040: e83f 2f3d 52b5 ebbc 30c0 c4bb e8b6 83bb
00000050: 5ddc 403d ea2f 6a3c 71b7 e4bb 3f90 d23c
00000060: bef0 e3bc cf09 8c3c 99f4 e5bc 55f4 e4bc
00000070: c27f 763d ec98 debc a94a 64bc 89b9 0e3d
00000080: fb67 06bd ed91 603d bde8 bbbc 6873 65bb
00000090: d7ad 833d 039b 693d 69b7 c2bc 9f4e 0bbd
000000a0: 7c25 88b9 f15a 61bd 5fa1 8d3c 9139 683d
000000b0: dfa6 a13c e4a3 86bb 7a85 4eba 353e 2cbd
000000c0: 823a b5bb 87d9 10bd 5484 693d 316a 343d
000000d0: 2808 f1bc 77fe fabc 9f60 db3a 1e98 1bbc
000000e0: cdc4 cbbc 3a36 35bd 92b3 6f3d 0788 02bd
000000f0: f3ba 04bd a5ff 97bb 86d3 7fbc f39d c3bc
-0.014827147 -0.0074548433 -0.024071151 0.015559856 -0.037647393 -0.023409754 -0.0028908942 -0.004049932
-0.035668604 -0.011241435 -0.006700898 -0.0034923763 -0.038477078 -0.0045751086 -0.011115272 -0.0097214
0.042785555 -0.028772984 -0.006004356 -0.004019607 0.047085155 0.01429365 -0.0069798757 0.025703548
-0.027824756 0.01709452 -0.028070735 -0.027948538 0.060180433 -0.027172528 -0.013933816 0.03484491
-0.032814007 0.054826666 -0.022938127 -0.0035011414 0.06429642 0.057032596 -0.023769097 -0.034010526
-0.0002596787 -0.05501837 0.017288862 0.056695525 0.01973289 -0.0041088928 -0.0007878166 -0.042051513
-0.0055306563 -0.0353637 0.057010964 0.044046585 -0.029422835 -0.030638916 0.0016737169 -0.009496717
-0.024874115 -0.044241168 0.05852086 -0.031868007 -0.03240485 -0.0046386295 -0.015614396 -0.023879027

model/dense_1/BiasAdd/ReadVariableOp f4 [128]
00000000: c7bb 93bc 8dad adbc bc38 7dbc d1a8 34bb
00000010: a802 c2bc f01b fd39 165a 9fbc 23e3 093d
00000020: 2c0e 713c 448c 97bc 417c 19bc 57be 0fbd
00000030: c52f 28bd 828a b0bc 12b9 97bb 58e3 7d3c
00000040: 57ee 0abd c537 e2bb 9d61 87bc fd42 f23c
00000050: f461 5ebc eaa8 49bd 4376 e83b d513 05bd
00000060: 4700 d7bc 676f fbbc 5b5c f4bc 0ebb f7bc
00000070: b001 2abc 7c1b 36bb 0970 86bc cc78 b73c
00000080: 7697 50bc 46e5 1abb 2ccc 333c a938 e1bc
00000090: cccb 32bc 3a40 27bb abed 71bb ce36 76bc
000000a0: 0bb4 c03c a58b 88bc a52a 0cbd 659b 43bc
000000b0: d49e f5bc e50a c03c af39 e13c 661a 9ebc
000000c0: 1f69 b63c 7927 b4bc b429 c63b 4e2b 11bd
000000d0: 6903 cdbc 0d6c 2bbc 16a4 8ebc ab5a a43b
000000e0: 8fdf 83bc 5469 41bc c07d 1ab9 30e0 ef3b
000000f0: 55f5 26bc 7b8a 7d3d 40e6 183c 6749 8ebc
00000100: ab07 1bbc eff0 bf3b 3768 813b 48a0 713b
00000110: d472 0bbc e3e1 e9bc 33a2 9a3b c639 283b
00000120: 0145 ceb9 d393 0a3d 6ac7 16ba 0d30 17bc
00000130: cc6f c1bc da4b bdbc 17cb 48bc b312 77bc
00000140: b501 033d d366 80bc bdce b1bc 98db c8bb
00000150: 488e 6cbd 7930 09bd aa01 f83c 9e65 da3b
00000160: d7f1 873c 2fbe fabc dff6 153c 03bd c9bc
00000170: 8033 33bc b7aa 6f3c 625b 9bba 11e9 fdbc
00000180: aa9e 04bd ea19 5ebc 9087 053d acea 0cbc
00000190: 1b1f 71bc 25f1 123d 4973 d3bc 90c9 6dbc
000001a0: 1a20 983b 7129 883a 0f04 23bc a6c3 87b8
000001b0: b8d4 893b 2679 263c 639f 2e3c 7ca6 2abc
000001c0: 78ed bdbc dae8 9cbc 932a bebc 5daa 913c
000001d0: ed12 aebc 1189 1cbc 86ba b23b eaee 043d
000001e0: 76b1 943c ae6a 00bd 41da 5a3c 1f30 8dbc
000001f0: 3c13 4b3c 5e14 36bc 5035 913c ae1f d9bb
-0.018033875 -0.02120092 -0.015455421 -0.0027566443 -0.023682907 0.00048276735 -0.019452136 0.03366388
0.0147128515 -0.018499501 -0.009368003 -0.03509363 -0.04106118 -0.02155042 -0.0046302164 0.0154960975
-0.033918705 -0.006903621 -0.016526038 0.029572958 -0.0135731585 -0.049233355 0.007094176 -0.032489616
-0.02624525 -0.03069277 -0.029829195 -0.030240562 -0.010376379 -0.0027787378 -0.016410844 0.022396468
-0.012731424 -0.0023635193 0.010973971 -0.027492838 -0.010912847 -0.002552046 -0.0036915343 -0.015027715
0.023523351 -0.01666815 -0.034220356 -0.011938904 -0.029982962 0.023442695 0.027493326 -0.019299697
0.022266923 -0.021991478 0.006047452 -0.03544169 -0.02502604 -0.010462773 -0.017412227 0.0050156913
-0.016097812 -0.011804897 -0.0001473343 0.0073204264 -0.010190328 0.061899643 0.00933224 -0.017368985
-0.009462277 0.005857579 0.003949191 0.0036869217 -0.008511264 -0.028550094 0.0047190427 0.0025669201
-0.00039342794 0.033832382 -0.0005751761 -0.009227765 -0.02361288 -0.023107458 -0.012255452 -0.015080142
0.03198405 -0.01567403 -0.021705026 -0.0061296932 -0.057752877 -0.033493493 0.030274231 0.0066649457
0.01659481 -0.030608265 0.009153097 -0.02462626 -0.0109375715 0.014628104 -0.0011852796 -0.030994924
-0.032377876 -0.013555983 0.032599986 -0.008600872 -0.014716889 0.035874505 -0.025811808 -0.014513388
0.0046424987 0.0010388327 -0.009949698 -6.473744e-05 0.0042062663 0.01016072 0.010658118 -0.0104156695
-0.023184523 -0.019154001 -0.02321366 0.01778143 -0.021249259 -0.009554164 0.005454364 0.03245441
0.018151026 -0.031351738 0.0133577 -0.01723486 0.012394723 -0.011113254 0.017725617 -0.006626091

model/dense/Tensordot/MatMul1 f4 [64, 3]
00000000: 834d 093e b55c c33d 4596 5cbe c21c d73c
00000010: 2f9d 3fbe 50b7 4bbe b25e 0abd 3839 6c3d
00000020: 6f80 82bc a771 f2bc a3bd 753e 2e22 98be
00000030: 9ad0 27be 6851 febd 042d 90bd 39f7 2a3c
00000040: b5b5 22be 4b96 6c3d 1c8f 1dbc 58e6 943b
00000050: be2b 513d ff0c 0cbe 4c04 283e 28c7 0bbe
00000060: 5529 09be 9e14 d8bd 40f7 84be 6b32 7bbe
00000070: f7e2 3c3e 54d4 8b3e f7d4 fdbd e23d f1bd
00000080: b8d7 553e 2f22 90bd 4280 e63c b794 193e
00000090: e281 88be b60e 5fbe 7799 f23c 7f09 923d
000000a0: 738e 11be f409 d0bd 00f5 06be fdb8 7bbe
000000b0: 3d51 803c 36da 333e 46a4 52be a8b4 413c
000000c0: ab92 513d c186 003e eafb c63b 4c5b 573d
000000d0: de6a 623e 313c 853e f067 c03d 4928 12be
000000e0: 04a5 37bd 71dd 213d 9a91 b63d 7814 3e3e
000000f0: d99a 713e 512f 3e3e 63b3 d73d 60a4 bfbc
00000100: 36a9 60be 7e6c dfbd 44f3 78be c193 3d3e
00000110: f436 4cbe e150 77be ab83 f13c 2da2 02be
00000120: b54b 43be 07b1 393e f4a8 dbbc a175 5b3c
00000130: 797e 83be a3a6 84be 74e1 06be ef6a 0fbe
00000140: dc54 04be 3085 0dbd 7ba9 79be 4053 683d
00000150: 2b7b 16be 609d 17bc 2ebc 1bbe b446 463e
00000160: d41a 1b3d 0073 5c3c 72d8 6bbe 9d4b 04be
00000170: 57fb 943e 1587 debd fa50 a83d 73db a23d
00000180: a704 8b3e 7cf0 603e 46ba 8fbd a0c2 18bc
00000190: 68dd c9bd c47d 5fbd 179f 6d3e 615e a3bd
000001a0: 8e5e cd3d 787d a1bd cc11 a13d 1e00 d5bd
000001b0: 8c59 61be 42ed 94be 0f4b b43d 1568 57be
000001c0: c84f 363e 00f3 91bd 1d9a 8b3e 2769 d83d
000001d0: 27f5 613e b049 303c 1a9f 243e aeb7 e3bd
000001e0: 931e 5c3e 7dc8 4ebe 56b7 13be 3e18 6dbe
000001f0: e011 213e 09c9 3d3e d3de 633e fa5c 9abe
00000200: 01f5 5f3e f829 6cbd ca5c f8bd a0de fbbc
00000210: a3bf 863e e0eb 03bd 3dca 4b3e 844e 8b3e
00000220: 82ea 51be d05a 123e 4be6 7dbe d193 933e
00000230: 91db fb3c 15d0 2cbc 9bf5 043e 419a 8a3e
00000240: fe2f 9cbd 19b8 2f3e fba6 e23d a429 1f3d
00000250: 2699 af3c 36fc 863d 0a1f e4bd ffb4 593e
00000260: 10e2 553d 1a51 42be a7e1 873e 3446 08be
00000270: 9a7c 11be c151 853d ee01 41be 526c 43be
00000280: 6c0c 4abd e3c7 a23c c844 8a3e 4346 8bbd
00000290: 17de b23c b060 86be d180 643e 26a9 cebb
000002a0: 8045 8fbb 3c0f 45be 005b 03bc edaa 0d3e
000002b0: d80b 11bd 2b91 afbd e179 513d cb07 473e
000002c0: 44c4 ad3d 03e5 153e cdc6 76be 0655 793e
000002d0: addb 323c 24b8 64be 3f27 583d 55cc 623e
000002e0: adc4 dabd 44dd 55be deea 86bd 2a13 db3d
000002f0: 313a f6bd 0f25 813e a6d7 e53d 54b9 8ebe
0.13408475 0.09539167 -0.21541698 0.02625883 -0.18712305 -0.19894147 -0.033781715 0.057671756
-0.015930383 -0.02959521 0.23998122 -0.29713577 -0.16388169 -0.12417871 -0.07039836 0.010434919
-0.15889628 0.057760518 -0.009616639 0.0045440607 0.051067106 -0.13676833 0.16407889 -0.13650191
-0.13394673 -0.105508074 -0.25969887 -0.24530952 0.18445955 0.2731043 -0.123941354 -0.11779381
0.20883071 -0.0703777 0.02813733 0.14998136 -0.26661593 -0.21782956 0.029614193 0.071307175
-0.14214496 -0.101581484 -0.13179398 -0.24582286 0.015663737 0.1756371 -0.20570478 0.011822857
0.051165264 0.12551405 0.006072511 0.0525773 0.22111079 0.26022485 0.093948245 -0.1427318
-0.044835106 0.039517824 0.0891449 0.18562496 0.23594226 0.18572737 0.10532262 -0.02339381
-0.21939549 -0.10909365 -0.24311548 0.18513395 -0.19942838 -0.24151947 0.02948173 -0.12757178
-0.19071849 0.18133937 -0.026813962 0.013394744 -0.25682428 -0.25908384 -0.13171941 -0.14005636
-0.12922996 -0.034550846 -0.24381058 0.05672002 -0.14695422 -0.00925383 -0.15208504 0.19362909
0.037867382 0.0134551525 -0.23031786 -0.12919469 0.29098007 -0.108656086 0.0821857 0.07952013
0.27151987 0.21966738 -0.07017951 -0.009323746 -0.09856683 -0.0545633 0.23205219 -0.07976986
0.100278005 -0.078852594 0.078647226 -0.10400413 -0.22006816 -0.29087263 0.08803379 -0.21035798
0.17803872 -0.07126427 0.27266017 0.10566931 0.22066174 0.010759756 0.16076317 -0.111190185
0.21496038 -0.20193668 -0.14425406 -0.23153779 0.15729475 0.1853372 0.2225297 -0.3014906
0.21870805 -0.057657212 -0.12127073 -0.030745804 0.26318082 -0.03220737 0.19901367 0.2720834
-0.20499614 0.14292455 -0.24794881 0.28823712 0.030744346 -0.0105476575 0.12984316 0.2707081
-0.07626341 0.17160071 0.11067005 0.03885807 0.021435332 0.06591074 -0.11138733 0.21260451
0.052217543 -0.1897625 0.26539347 -0.1330803 -0.14207688 0.06509734 -0.18848392 -0.1908429
-0.049328253 0.019870704 0.270056 -0.06800511 0.021834416 -0.26245642 0.22314765 -0.006306785
-0.0043722987 -0.19244093 -0.008017302 0.13834734 -0.035411686 -0.085726105 0.051141623 0.19436567
0.084847 0.14638142 -0.24099274 0.2434884 0.010916633 -0.22335869 0.052771803 0.22148259
-0.10682044 -0.20885187 -0.06587766 0.10697015 -0.12022818 0.25223586 0.11222772 -0.2787577

model/dense_1/Tensordot/MatMul f4 [128, 64]
00000000: cd3e 21be 75c7 be3d 42a5 c83d 88f5 1a3e
00000010: 8ef0 1bbe c37d 49be 9e91 093e c1cd 4a3e
00000020: 2803 85bd b25f 1bbe 1ff8 ba3d 0917 973e
00000030: 23ca 3f3b 0336 8dbc 5972 d83d 44c2 6cbc
00000040: 06b1 adbd 54ee 1b3e 3444 063e 6872 273e
00000050: 7b9e 553e e0ef cdbd 3707 a4bd b437 393e
00000060: 1426 35bc 273f b8bd 8559 fbbc 90b2 ac3d
00000070: b355 12bd 2bc6 be3d 9bdd 863d 3e26 3a3e
00000080: ee26 e0bd 1e38 183e 0a3f f7bc 8cba e4bd
00000090: 9bf3 dd3d d827 26be 40f1 6b3d 4dd5 34bd
000000a0: 5afa 1b3e f84f 02be 21b8 423e 284e 13be
000000b0: 7ebc 893d 4c27 a4bd ffcc 333e a029 eb3d
000000c0: 308c dfbd 0716 05be f3b4 ae3d 513f 873d
000000d0: 8879 1abe d023 35be 9bee 15be 1781 263e
000000e0: b9ba 1a3d 8880 453e 5703 eb3c 3897 0ebd
000000f0: e783 60bd 0e04 403d 991d 17bd 7488 23be
00000100: eeda 32bd 6f7b 963d 5f95 1abd c1f7 ab3d
00000110: 2439 613e 6ff7 aebd 8440 5dbd 1004 973d
00000120: f639 c6bd faae f43d daef 173e 7e84 983e
00000130: 8b23 1fbd f4ad dcbd feb2 04bd 8350 3a3e
00000140: 49f7 a6bd 7881 4e3e 52d6 06be 2e9f 07bc
00000150: d993 7f3e 1016 143e 2844 babd bbc8 603d
00000160: 9d50 c6bd 9e70 4a3e ba0a 0b3c d47b d3bb
00000170: 4b42 5a3e 97d7 c03d b51b 213e 9820 d83d
00000180: 5f93 16bd c495 1f3e 4d98 45bd bbce 2d3e
00000190: 0292 fa3d fc15 2cbe ccf5 133e d04a f33d
000001a0: f7d1 8fbd 013d 2cbd 445e 7f3e f775 533a
000001b0: 2e6c 73bd 52a7 eebd 86dc f73d e620 19bd
000001c0: e541 633d 80e3 16bc 4f04 343d 3ff3 0a3e
000001d0: 6294 e8bd cf80 fe3d 9e52 e6bd bdc3 c4bd
000001e0: a42a e4bd c461 43bc f74f 29be a62d eebc
000001f0: e12d 073e 4d59 3b3e 6099 cabd d2f7 d83d
00000200: c9fe 013c 9d6e 57bd abba c93d 10ce b63d
00000210: 1e10 e1bd 0ad9 8a3d 81b7 91bd 83a3 9bbd
00000220: 45b4 d33d 8786 6f3c 5684 b13c 514a 11bd
00000230: c463 693d 62f0 c53d be3f c5bd 8357 433e
00000240: 347c 4b3d 9dc4 423e c74a 343e 256b a5bd
00000250: 086e 673e 88a8 1e3e d7eb f1bd 902a c43c
00000260: ce6f abbd 2c5b dc3d 4639 c3bc 0b3b 35be
00000270: dcb7 25bd 9013 463e bd42 1e3e e277 8f3e
00000280: 302e 22bd f24f 333e 0180 12be 0d9f 443e
00000290: f4f4 bc3d 3f5f 07bd ebaa d4bd b81c ef3b
000002a0: 72a4 2c3e 3f6e 933e 8f18 673e 23e5 14be
000002b0: 5a62 f4bc f5a7 c13d 21a6 0d3e 5104 0ebe
000002c0: b0fe d93d 7d64 a6bd 4ff4 96bd 955d ed3d
000002d0: 2be0 98bd 1d82 c6bd e5ee b8bd 9801 633d
000002e0: e2c5 e33d e11c 383e 3bc6 14bc 0504 8c3d
000002f0: db79 bfbd fad1 5e3e 7937 773d 4c86 19be
00000300: 929d 143d b638 6dbd fb6b 503d 8eab cbbd
00000310: 20b4 853c 177f a7bd 60f0 2f3e 0f9e 5c3d
00000320: 6778 72bc 0c3b 9f3d 4d7d 94bd 95cc aabd
00000330: cb9b 113e b7ab 073e fe84 27be c20d df3d
00000340: f845 a63d c7c7 693e 8757 cc3c 5290 553d
00000350: d635 2e3c 0c08 a2bd 8638 cebc d7ef 663e
00000360: a292 073e 2383 a2bc eade c13c 1641 9fbd
00000370: a8fb abbd c468 c73d 5de8 c23d a85b 04b8
00000380: b7b7 22bd b0c1 2e3e 0721 8bbd f8fc b83d
00000390: 7652 a83d b3b6 a23d ebdc 0cbe 9402 673e
000003a0: 6951 543e 1071 213e 7583 d23e a491 9cbd
000003b0: 60f6 91bd dcb6 0f3e 0f6d 743a 701c 613d
000003c0: 6f6c 863d 3689 66bd 951f f2bd f9d3 a2bd
000003d0: b484 5abd be2e 0b3e 3abb 9cbd 04d0 ebba
000003e0: 8a45 603e 8488 b33d 4b4a a9bd b187 0fbe
000003f0: 0711 c03d 8509 92bc cbc3 b33d e49c aebb
-0.15746613 0.09315387 0.097971454 0.15132725 -0.15228483 -0.1967688 0.13434455 0.19805051
-0.06494743 -0.15173224 0.091293566 0.29509762 0.002926477 -0.017237669 0.10568685 -0.014450613
-0.0848103 0.15227634 0.13111955 0.16352236 0.20861237 -0.10055518 -0.080091886 0.18087655
-0.011056442 -0.0899642 -0.030682335 0.084324956 -0.03572626 0.09315141 0.06585237 0.1817865
-0.10944925 0.14865157 -0.030181427 -0.111683935 0.1083748 -0.16226137 0.05760312 -0.044148732
0.1523222 -0.12725818 0.19015552 -0.14385283 0.06725405 -0.08015308 0.17558669 0.11482549
-0.109154105 -0.12996684 0.08530607 0.066038735 -0.15085423 -0.17689443 -0.14641802 0.16260181
0.03777573 0.19287312 0.028688116 -0.034812182 -0.054813292 0.046878867 -0.03689346 -0.15970021
-0.04366582 0.07347762 -0.037740108 0.08396865 0.21994454 -0.08543288 -0.054016605 0.07373822
-0.09679024 0.11947437 0.1483759 0.29788584 -0.038852256 -0.107753664 -0.032397263 0.18194775
-0.08152635 0.20166576 -0.13167694 -0.0082776975 0.24958743 0.14461541 -0.09095031 0.05487893
-0.096833445 0.19769523 0.008486444 -0.0064539704 0.21314351 0.094161205 0.15733226 0.10553092
-0.036761638 0.15584475 -0.04824095 0.16973393 0.1223488 -0.16805261 0.14449233 0.11879504
-0.070224695 -0.042050365 0.24938303 0.00080665894 -0.05942934 -0.116530076 0.121026084 -0.03738489
0.055482764 -0.009209514 0.04394942 0.13569354 -0.11356427 0.12426912 -0.11246227 -0.096076466
-0.111409456 -0.011925165 -0.1653441 -0.029074501 0.13201095 0.18295784 -0.09892535 0.10594143
0.007934281 -0.052595723 0.09850057 0.08926022 -0.10989402 0.06779678 -0.07115079 -0.07599547
0.10337118 0.014619476 0.021669548 -0.035471264 0.05697991 0.0966499 -0.096312985 0.19076352
0.049678996 0.19020315 0.1760665 -0.08077077 0.22600567 0.15493977 -0.11812561 0.023946077
-0.083709344 0.10759577 -0.023831021 -0.17698304 -0.040458545 0.193434 0.15455146 0.2802115
-0.03959483 0.17510965 -0.14306642 0.19201298 0.092264086 -0.033049818 -0.103841625 0.0072971247
0.16859606 0.2879505 0.22567962 -0.14540534 -0.029832054 0.094558634 0.13832904 -0.13868834
0.10644281 -0.08124635 -0.07370817 0.11590115 -0.07464632 -0.09692786 -0.090299405 0.05542144
0.111217275 0.17979766 -0.009080465 0.06836704 -0.09349414 0.21759787 0.060355637 -0.14992636
0.036283083 -0.057915412 0.05088423 -0.09944831 0.016321242 -0.08178537 0.1718154 0.053861674
-0.014799214 0.07774934 -0.07250462 -0.08339802 0.14219587 0.13249098 -0.16359326 0.10891296
0.08118814 0.22830115 0.02494408 0.052139588 0.010632953 -0.07911691 -0.025173437 0.22552429
0.1323953 -0.019837921 0.023665864 -0.07776086 -0.08397609 0.09736779 0.09516976 -3.1556614e-05
-0.039725985 0.17066073 -0.06793409 0.09032625 0.08218853 0.07945003 -0.13756149 0.22559577
0.2073418 0.15765786 0.4111592 -0.07644966 -0.071270704 0.14034599 0.00093241123 0.05495876
0.06563651 -0.0562832 -0.1182243 -0.07950587 -0.05334921 0.1359205 -0.07652898 -0.0017991071
0.21901527 0.08766273 -0.082661234 -0.14016606 0.09378248 -0.017826805 0.08777579 -0.0053287614

model/dense_2/Tensordot/MatMul f4 [64, 128]
00000000: 5148 173e 1735 14be b4cf 503b a0f2 a8bd
00000010: 8181 103e f331 4b3d 94c6 24bd a165 2cbe
00000020: 7d03 143e 0e13 efba 0a55 38be b7b8 b3bd
00000030: 44af a73c 04ab e63d 6e9d 053e 1c93 5f3d
00000040: f53d 833c eda2 88bc 1508 12be 1578 003e
00000050: 46fc bbbd 5677 713c fee5 853d 1b83 993c
00000060: 2cc1 f9bd d2d7 073e 16d2 2dbd 6f3c e0bd
00000070: 84ec 4f3d 9861 54bc c8fd 6dbc a2b6 59bd
00000080: eaa9 38bd ae48 7f3c 6c5c 8dbc a74c 8ebc
00000090: ef29 f8bd 5824 70bd 33fe 4f3d 98c2 36be
000000a0: d181 81bd ac17 23bd 9f5f 33be ca79 1f3e
000000b0: e12c f5bd fc2c 31be 97c6 6aba d688 e8bd
000000c0: ead6 d1bd d86b 7e3d c2bc 1fbe a29d a8bd
000000d0: 328a a8bd 2b14 233e 8984 bb3d 8896 a03d
000000e0: 4cfc 21bd 5fd7 873c c0fe d33d 26df ddbd
000000f0: 9c45 f9bb aa20 0abe e746 20be b6b1 b73c
00000100: 4c99 203e 8bb9 933c fe51 7e3c c52b 0ebe
00000110: a326 d23d 4202 bebd 5ece ff3c 7055 713d
00000120: 61a6 c73d 7864 2b3e e55a 27be a6ef 0fbe
00000130: 9d5f ab3d f4ff 503d 3f24 31be 8cf5 d03d
00000140: 3158 9bbd 73b6 4bbe 0765 b03d aec1 5f3d
00000150: 9f73 ed3d 01b4 033e b8d9 45bd 067a 30bd
00000160: dfc3 b23a de75 d4bd c456 94bc c724 123e
00000170: 4f4b f03b f4cd 913d 4b45 2cbd 8e1b 913d
00000180: d775 083e 29d3 01be ce79 973d b999 643d
00000190: 882a 303e fbeb 1dbd 0332 353d 7509 1dbe
000001a0: 9a60 1c3e e659 0c3e 0bf0 46bc 50d2 a3bd
000001b0: eb74 19be 3633 dfbb 949e 87bd f644 a93d
000001c0: bd33 aebd bf93 08be 8a64 e9bd d934 26be
000001d0: d308 e83d 3a95 58bd ade3 90bd efd5 16be
000001e0: 6a4e bd3d 6043 f03d 3176 bebd 892e 53bd
000001f0: b02e 8ebc 6207 29bc a196 083e 3130 0f3e
00000200: 2498 253e 9ada 93bd 27de 33bd e779 17be
00000210: 4294 afbc 79aa 0b3e f560 6fbc 366c 29be
00000220: e1f7 013e d5f4 9cbc de82 893d 6969 79bd
00000230: 14d8 003d 7e52 09bd e88c 343e 5a83 2fbd
00000240: 1a92 0ebe 5933 dabd 4b6f f13d 1bf6 113e
00000250: ec43 ca3d b265 31bd 25b6 cd3d 7478 46bc
00000260: 7c77 463d 88a7 b23d d135 003d e3f3 e33d
00000270: 3bb8 25bd 1162 0dbe fb35 973d 8f88 113e
00000280: 4f13 b0bd ca49 f83d 6316 3dbd a169 1bbe
00000290: f64e 2dbe 370f 1dbe 2319 273d 4707 c9bd
000002a0: c213 78bc add8 ebbc 90ab 5bbd 46d7 2b3e
000002b0: 7644 033e 59b3 a53d 7ac1 ee3d 3ca2 f13d
000002c0: 7a44 0fbe aad8 cabc fc92 b2bd 1fa6 b7bd
000002d0: 98b9 efbd de3d e23c 817d fc3c 0198 003e
000002e0: 83ec 183e f1c7 093e 590c f8bd 015a b9bd
000002f0: 976c 313d aa97 0e3e add9 9a3d f202 163e
00000300: 3d27 e93d b239 acbd 960c e1bd 77aa 7bbd
00000310: 774e b53c 33c4 10bd d2d9 87bb ffa6 c93c
00000320: 3a5b 5e3d 340e 003e 3d15 a9bd 4c54 88bc
00000330: 394f d7bd f4b0 db3d b94a 803c 042c 67bd
00000340: 9ec1 cb3d da66 eabd 2ff8 543d 9d44 e3bc
00000350: dfbe 07bd 90d4 aebd 998d 1d3e 3d7a 59bd
00000360: d807 98ba fb76 143d 1f37 1f3b b972 aebd
00000370: 330f 543d 97ab 013e d9b4 003e 0b74 c0bd
00000380: f021 f4bc d2fb fbbd fe8d f03c e7ee 943d
00000390: 949f 1d3d a232 e5bd 795d 3dbd 84ce 31be
000003a0: ef28 353a 9f31 95bd 6b62 22be 5e72 1abe
000003b0: 6298 2abe 9fff 86bd 0d71 143e 8e2d e63d
000003c0: 9719 c13d 062f efbd d98e 893d 3c3f 503c
000003d0: 7db8 c9bc 716c 25be efa2 f4bd 9dfa 233e
000003e0: 7a48 283e 2c3f 28be 170d 41bc 9881 8d3c
000003f0: bbc5 373b 3b8a 76bc b349 1dbe 2ae0 083e
0.1477368 -0.14473377 0.0031862082 -0.08249402 0.14111902 0.049608182 -0.04022844 -0.16835643
0.14454456 -0.0018239932 -0.1800119 -0.08775466 0.020469315 0.112630874 0.13048336 0.054583654
0.016020754 -0.016679252 -0.14260896 0.12545808 -0.09178977 0.014737925 0.06538008 0.018739274
-0.12195048 0.13265923 -0.04243668 -0.10949027 0.05076267 -0.012962721 -0.014525838 -0.053152688
-0.045083918 0.015581293 -0.017255984 -0.017370535 -0.12117373 -0.05862841 0.050779533 -0.17847669
-0.06323589 -0.039817497 -0.17516945 0.15573803 -0.119714506 -0.17302316 -0.0008955984 -0.113542244
-0.1024607 0.062114567 -0.15599349 -0.08233191 -0.08229484 0.15925662 0.091561384 0.078412116
-0.03954725 0.01658219 0.10351324 -0.10833578 -0.007607175 -0.13489023 -0.15652047 0.022423606
0.15683478 0.01803281 0.015522478 -0.13883884 0.102612756 -0.092777744 0.031226333 0.05891937
0.09748531 0.16737545 -0.16343267 -0.14056262 0.08367846 0.051025346 -0.17298983 0.10203084
-0.075851806 -0.19893818 0.086130194 0.054628067 0.115943186 0.12861635 -0.048303336 -0.04308512
0.0013638696 -0.10374044 -0.01810778 0.14271842 0.0073331962 0.071193606 -0.04205827 0.07085334
0.13326202 -0.12678207 0.07396279 0.055810664 0.17203724 -0.038555127 0.044237148 -0.15335639
0.15271226 0.13706169 -0.012142192 -0.07999098 -0.14986007 -0.0068115247 -0.06622043 0.082651064
-0.08505962 -0.1333761 -0.113961294 -0.16231097 0.11329808 -0.05287669 -0.07074676 -0.14730047
0.09243472 0.11731601 -0.09299887 -0.05155805 -0.017356247 -0.010316702 0.1333871 0.13983227
0.16171318 -0.07219429 -0.043913033 -0.14792596 -0.021433 0.13639249 -0.014610519 -0.16545185
0.12692215 -0.019159714 0.06714414 -0.060891543 0.03145607 -0.033525936 0.17631876 -0.042849876
-0.13922921 -0.10654325 0.117888056 0.14254038 0.09876236 -0.043309875 0.10044507 -0.012113679
0.048453793 0.0872336 0.031301323 0.11130502 -0.0404589 -0.1380694 0.07383343 0.14212249
-0.08597433 0.12123449 -0.046163928 -0.15177013 -0.16924652 -0.15337835 0.040795457 -0.09815841
-0.015141429 -0.028789843 -0.05363041 0.16781339 0.12819085 0.080908485 0.116579965 0.11798522
-0.13990965 -0.024761517 -0.08719441 -0.08967232 -0.11705321 0.027617391 0.030821564 0.12557985
0.14933972 0.13455178 -0.1211173 -0.0905037 0.04331645 0.13925043 0.075610496 0.14649561
0.11384437 -0.08409442 -0.10988729 -0.061441865 0.022132142 -0.03534336 -0.0041458393 0.024615763
0.05428622 0.12505418 -0.08256004 -0.016641758 -0.105131574 0.107271105 0.01566063 -0.05643846
0.09949039 -0.11445399 0.0519945 -0.027742678 -0.033141013 -0.08536637 0.15386046 -0.05309509
-0.0011599017 0.03624628 0.002429433 -0.08517975 0.051772308 0.12663113 0.12568988 -0.093971334
-0.029801339 -0.1230389 0.029364582 0.072721295 0.038482264 -0.11191298 -0.04623172 -0.17363936
0.00069107016 -0.07284855 -0.15857856 -0.1508269 -0.16659692 -0.065917246 0.1449625 0.112391576
0.09428709 -0.11678891 0.06716699 0.012710389 -0.024624104 -0.16154648 -0.119451396 0.1601357
0.16433898 -0.16430348 -0.011782906 0.01727371 0.002804144 -0.015047605 -0.15360145 0.13366762
